init-latents.safetensors (safetensors, 131160 bytes, 1 tensors)

latents f2 [1, 4, 128, 128]
-0.2345 -0.695 0.312 0.1495 0.1238 1.707 -0.342 -1.051
-0.1549 -0.2445 -0.4377 -0.06192 2.008 2.03 -1.163 0.1151
0.8135 -1.919 -0.4856 0.3909 0.4536 -0.9766 -0.7495 0.39
0.858 -0.566 -0.4648 2.023 -0.576 -0.4707 -0.272 0.5815
1.041 -0.381 0.578 0.64 1.161 -2.17 -0.10754 2.43
1.631 0.8594 0.2035 -0.1228 0.685 0.2534 -0.35 0.4263
-0.3416 0.2026 -0.1608 1.091 0.7773 -2.738 0.719 0.04398
-0.3599 -0.689 -2.291 1.107 0.2137 -0.8354 -0.587 -0.87
-2.195 -0.805 -0.3823 -0.579 -0.335 0.6523 -0.5024 1.331
1.51 -1.17 -0.1614 0.1034 0.4668 -2.008 -0.4407 -0.4058
1.355 -2.133 1.272 -0.0096 -0.2368 0.4053 -0.1864 -0.774
0.05905 0.325 1.189 0.1252 0.0073 1.286 -0.132 -1.317
0.8623 0.08966 -1.74 -1.034 -0.529 -1.447 0.3652 -0.5854
-1.433 0.738 0.0776 1.347 -1.388 -0.001997 -0.6 0.0996
-0.4358 -0.9165 -0.1947 0.1246 -0.005615 0.313 -0.704 1.168
0.2676 0.5 0.1299 -0.985 -1.277 1.439 -0.0744 1.601
0.58 0.6167 0.6543 1.033 1.812 -1.141 -1.101 -0.07214
-0.288 1.174 -1.44 0.8228 0.8506 -1.072 -1.009 1.044
0.0848 -1.565 -0.1936 0.801 -2.549 -0.924 1.041 0.1327
1.616 -0.4644 0.492 -1.904 0.2913 -0.819 1.454 0.0794
0.7427 0.1142 -0.588 1.062 0.04205 -0.4678 0.1538 0.1492
-0.47 0.1929 0.68 1.529 -0.36 1.08 0.5503 0.4617
1.227 -0.1005 -1.581 -0.8726 0.3157 1.415 1.01 0.851
-1.357 -0.2954 1.432 0.4243 0.0767 0.1796 0.727 -1.6455
-0.7554 0.0416 0.7817 -0.2673 0.295 -2.805 -0.641 -0.8647
-0.3467 -1.953 1.204 0.303 1.215 -0.7495 -0.003551 -0.2927
1.335 0.147 -0.4045 0.4612 0.965 -0.1194 0.514 -0.9614
0.2308 -0.2343 0.3425 -0.564 0.7275 1.472 1.492 0.7354
-0.8423 0.7476 -0.836 -0.5117 3.934 -0.36 0.12067 -1.671
0.51 -1.237 0.727 -0.3418 1.43 -0.8125 1.889 -0.6377
0.838 -0.716 -2.168 1.031 -0.6016 -0.616 1.422 0.1976
-0.368 0.724 0.2238 -0.3062 -0.4775 -1.688 -0.519 -0.1586
00000000: 81b3 8fb9 fe34 c930 ec2f d43e 79b5 34bc
00000010: f5b0 d3b3 01b7 edab 0440 0f40 a7bc 5e2f
00000020: 823a adbf c5b7 4136 4237 d0bb ffb9 3d36
00000030: dd3a 87b8 70b7 0c40 9cb8 88b7 5ab4 a738
00000040: 2a3c 19b6 a038 1f39 a53c 57c0 e2ae dc40
00000050: 863e e03a 8332 dcaf 7b39 0e34 9ab5 d236
00000060: 77b5 7c32 25b1 5d3c 383a 7ac1 c139 a129
00000070: c2b5 83b9 95c0 6e3c d732 afba b2b8 f6ba
00000080: 64c0 71ba 1eb6 a2b8 5cb5 3839 05b8 533d
00000090: 0a3e aebc 2ab1 9e2e 7837 04c0 0db7 7eb6
000000a0: 6c3d 44c0 173d eaa0 94b3 7c36 f7b1 31ba
000000b0: 8f2b 3335 c23c 0230 7a1f 253d 39b0 45bd
000000c0: e63a bd2d f6be 23bc 3bb8 cabd d835 afb8
000000d0: bbbd e739 f72c 633d 8dbd 1798 cdb8 602e
000000e0: f9b6 55bb 3bb2 f92f c09d 0235 a2b9 ac3c
000000f0: 4834 0038 2830 e1bb 1cbd c23d c3ac 673e
00000100: a438 ef38 3c39 223c 3f3f 90bc 67bc 9eac
00000110: 9cb4 b23c c3bd 953a ce3a 4abc 09bc 2d3c
00000120: 6d2d 43be 32b2 683a 19c1 64bb 2a3c 3f30
00000130: 773e 6eb7 df37 9ebf a934 8dba d13d 152d
00000140: f139 4f2f b4b8 3f3c 6229 7cb7 ec30 c630
00000150: 85b7 2c32 7139 1e3e c3b5 523c 6738 6337
00000160: e83c 6fae 53be fbba 0d35 a93d 0a3c cf3a
00000170: 6ebd bab4 ba3d ca36 e92c bf31 d139 95be
00000180: 0bba 5329 413a 47b4 b834 9cc1 21b9 ebba
00000190: 8cb5 d0bf d13c d934 dc3c ffb9 469b afb4
000001a0: 573d b430 79b6 6137 b83b a4af 1d38 b1bb
000001b0: 6333 7fb3 7b35 83b8 d239 e33d f83d e239
000001c0: bdba fb39 b0ba 18b8 de43 c3b5 b92f afbe
000001d0: 1438 f3bc d139 78b5 b83d 80ba 8e3f 1ab9
000001e0: b43a bab9 56c0 203c d0b8 eeb8 b03d 5332
000001f0: e3b5 cb39 2933 e6b4 a4b7 c1be 27b8 13b1
